weights/edgeSR_max_qat_200.jit.pt (torch, 256959 bytes, 42 tensors)

weight f4 [28, 3, 3, 3]
0	0xbe9e4e01	-0.30918887
1	0xbeb1e22d	-0.3474287
2	0xbe9ea138	-0.30982375
3	0x3d54c752	0.0519479
4	0xbe7cd7e6	-0.24691734
5	0xbe6ae106	-0.22937402
6	0x3d0ab004	0.033859268
7	0xbe97f1a8	-0.29676557
8	0xbd7aa76f	-0.061194833
9	0xbc3e0dcc	-0.011599969
10	0x3d5c6f59	0.053817127
11	0x3dd1afa7	0.10238581
12	0x3de5be26	0.112179086
13	0x3e6df52b	0.23238055
14	0x3dca1f7f	0.09869289
15	0x3d9674f5	0.073465265
16	0x3db4b03b	0.08822676
17	0x3dc8d965	0.0980709
18	0x3da82366	0.08209877
19	0x3e472935	0.19449313
20	0xbd759e7b	-0.059965592
21	0x3e9bfef0	0.3046794
22	0x3e34391b	0.17599909
23	0x3cf01e71	0.02931139
24	0x3e0b7a85	0.13620956
25	0xbd18fbc6	-0.037349485
26	0x3ddacb22	0.10683276
27	0xbe856072	-0.26050144
28	0xbde136df	-0.10996794
29	0x3e3a1652	0.18172577
30	0xbe8bb76f	-0.27288386
31	0xbe62830f	-0.22120307
32	0x3e7c4eef	0.24639486
33	0xbc0cf398	-0.008602999
34	0x3bedfac5	0.00726256
35	0x3e9a8532	0.30179745
36	0xbe178c9e	-0.14799735
37	0xbe4002f4	-0.18751127
38	0xbda7d069	-0.08194048
39	0xbe79792f	-0.24362634
40	0xbe616ecc	-0.22014922
41	0xbe166172	-0.1468561
42	0x3e0739b6	0.13205609
43	0xbe2deaeb	-0.16984145
44	0x3e8afdd6	0.27146786
45	0xbdab20dd	-0.083558775
46	0x3e6cac7f	0.23112677
47	0xbc6ff28c	-0.01464523
48	0x3dca091d	0.098650195
49	0x3eb5c067	0.35498354
50	0x3ec3f62d	0.38273755
51	0xbd76920c	-0.060197875
52	0xbe10cd13	-0.1414073
53	0x3ea7d747	0.3278143
54	0xbda05724	-0.07829121
55	0x3ccd4e7f	0.025061844
56	0x3e2de3c2	0.16981414
57	0xbeb515bf	-0.35368153
58	0x3dd24ebc	0.10268924
59	0xbe1c3893	-0.15255956
60	0x3e7e41c0	0.24829769
61	0x3e183af2	0.14866236
62	0x3b6cfd4e	0.0036161724
63	0xbe800fc2	-0.25012022
64	0xbea40a19	-0.32038954
65	0x3d57eba3	0.052714955
66	0xbf1004f0	-0.56257534
67	0xbced040b	-0.028932592
68	0xbec471e7	-0.3836815
69	0x3dc7a2f8	0.09747881
70	0x3d8ecc86	0.069726035
71	0xbe0715bc	-0.13191885
72	0xbda58920	-0.08082795
73	0x3e1d2f43	0.1535006
74	0x3e18b416	0.14912447
75	0xbe6122c3	-0.21985917
76	0x3e9bff70	0.3046832
77	0xbdea0220	-0.114261866
78	0x3e876728	0.2644589
79	0x3e89e6e5	0.2693397
80	0x3df9b646	0.12192969
81	0x3e0a963f	0.13533877
82	0xbe4a580f	-0.19760154
83	0x3dcd6f25	0.10030965
84	0x3ca9e82e	0.020740595
85	0xbe8229f6	-0.2542264
86	0xbd1669b2	-0.036721893
87	0xbd90c0a1	-0.07067991
88	0x3cda7ddb	0.02667134
89	0xbe488e66	-0.1958557
90	0xbe1680d8	-0.14697587
91	0xbe8166f0	-0.25273848
92	0xbe5f6caa	-0.21818796
93	0xbe243df2	-0.16039255
94	0xbe92cc78	-0.28671622
95	0xbdc85396	-0.09781568
96	0xbda0f4a3	-0.07859161
97	0x3d71c61b	0.05902682
98	0xbe8ab4e3	-0.2709113
99	0x3e96b39e	0.29433912
100	0x3e89d44c	0.26919782
101	0x3e50efdd	0.20404
102	0x3eaf5d43	0.3425084
103	0x3e8ff0a3	0.2811328
104	0x3c70470b	0.014665375
105	0x3e82aa7b	0.2552069
106	0x3e7bf944	0.24606806
107	0x3dca08b8	0.09864944
108	0xbdc4a30e	-0.09601413
109	0xbd5d3554	-0.054005936
110	0x3e772e33	0.24138717
111	0x3e469de3	0.19396167
112	0xbe1e880d	-0.15481587
113	0x3e166505	0.14686973
114	0xbd9d5b9e	-0.0768349
115	0x3e356be3	0.17716937
116	0x3db91c5e	0.09038614
117	0x3dd57d84	0.10424331
118	0x3e48982b	0.19589297
119	0xbd320921	-0.043465737
120	0x3b62a4eb	0.0034583162
121	0xbdde9a0d	-0.108692266
122	0x3ea616ae	0.32439178
123	0x3d938505	0.07203106
124	0x3e951ac8	0.29121995
125	0x3dd9c190	0.10632622
126	0xbd39122c	-0.045183346
127	0xbe58cc6b	-0.2117173
128	0xbe1dbb6a	-0.15403524
129	0xbe7d122f	-0.24713968
130	0xbf505688	-0.81382036
131	0xbe858d63	-0.26084432
132	0xbe8add06	-0.27121753
133	0xbecb4bd4	-0.3970629
134	0xbe402f71	-0.18768097
135	0xbe73ecd9	-0.23820819
136	0x3d9c7da5	0.07641152
137	0x3dac2e62	0.08407284
138	0xbe3fd164	-0.1873222
139	0x3f053cb7	0.5204577
140	0x3d1b7a5b	0.037958484
141	0xbe0a75a5	-0.1352144
142	0xbcaaea67	-0.020863725
143	0x3cf0a924	0.029377528
144	0x3e46a179	0.19397534
145	0xbd4bfe02	-0.049802788
146	0xbe16b98e	-0.14719221
147	0x3d2bf8df	0.04198539
148	0x3e8e4bce	0.2779221
149	0x3db24b54	0.08705774
150	0x3e2284bb	0.15870945
151	0xbe73ee77	-0.23821436
152	0xbe204ab8	-0.15653503
153	0xbd1118e2	-0.03542412
154	0xbe70cd1f	-0.23515747
155	0x3dc23fcc	0.094848245
156	0x3dd153e4	0.10221079
157	0xbf4223df	-0.75835985
158	0x3d739260	0.059465766
159	0x3c9068af	0.017628042
160	0x3eb15991	0.34638646
161	0x3d7f38a0	0.06230986
162	0x3d740516	0.059575163
163	0x3e907591	0.28214696
164	0x3e47352a	0.19453874
165	0xbe4135e3	-0.18868212
166	0x3e6379b4	0.22214395
167	0x3e876252	0.264422
168	0xbdfed3d3	-0.12442746
169	0xbe8a1378	-0.26967978
170	0xbeab11f5	-0.33412138
171	0x3e0c2e03	0.13689427
172	0x3ea63b4d	0.32467118
173	0x3e2fab7f	0.17155264
174	0x3dcd6106	0.100282714
175	0x3e884ff5	0.26623502
176	0x3e65c931	0.2244003
177	0xbe52f74a	-0.20602146
178	0x3e6df67b	0.23238556
179	0xbe2fa97f	-0.17154501
180	0xbd376f0b	-0.044783633
181	0xbd20e9b3	-0.039285373
182	0xbe554d97	-0.2083038
183	0xbd610be5	-0.054942984
184	0x3d1e12eb	0.03859226
185	0xbddbffa7	-0.10742121
186	0xbea7287e	-0.3264808
187	0xbe696b39	-0.22794808
188	0xbe872a32	-0.2639938
189	0x3d9340f7	0.071901254
190	0x3ebbb317	0.36660072
191	0x3e10b520	0.14131594
192	0x3eb227be	0.34795946
193	0x3e86b528	0.26310086
194	0x3d4b0887	0.04956868
195	0x3e702b8e	0.23454115
196	0x3dd15f0a	0.102232054
197	0xbdc48b91	-0.09596933
198	0xbe8fac86	-0.28061312
199	0xbdcfe440	-0.10150957
200	0xbe367e3e	-0.17821595
201	0xbe6ac3eb	-0.229263
202	0xbe750b11	-0.23930003
203	0x3e16ee1b	0.14739268
204	0xbeb6bd2a	-0.35691196
205	0xbe9f25ed	-0.31083623
206	0xbddea337	-0.108709745
207	0xbd3ed3c2	-0.046588667
208	0x3e0e9311	0.13923289
209	0x3afdbc58	0.0019358499
210	0x3bedda66	0.007258701
211	0xb9a6204b	-0.00031686047
212	0xbd47f05f	-0.04881322
213	0xbdbf2d1c	-0.09334776
214	0xbda736da	-0.08164759
215	0x3e5a22d5	0.2130235
216	0xbe74e6fe	-0.23916242
217	0x3e0d3900	0.13791275
218	0x3c1b4661	0.009477229
219	0x3e768cfe	0.24077222
220	0x3c6eae5f	0.0145679405
221	0xbdc851f9	-0.0978126
222	0x3d808781	0.06275845
223	0xbcbf42d2	-0.023347292
224	0x3da047f3	0.07826223
225	0xbe24bffb	-0.1608886
226	0x3e691b63	0.22764353
227	0xbe255ad6	-0.16147932
228	0xbd0f0a68	-0.034922034
229	0xbf091ffd	-0.53564435
230	0xbe5917a1	-0.2120042
231	0xbdd0b003	-0.101898216
232	0xbde47154	-0.11154428
233	0x3dcf25f4	0.10114661
234	0x3e64a8ac	0.22329968
235	0xbda27cf8	-0.07933992
236	0xbcc85e51	-0.024459036
237	0x3f0d0460	0.550848
238	0x3eb190cb	0.3468078
239	0x3d4564a3	0.048191678
240	0x3d242ffc	0.040084824
241	0x3ceea9ac	0.02913364
242	0xbe9d25dd	-0.3069295
243	0x3ebcde4f	0.36888358
244	0x3ebf0b15	0.37313142
245	0x3e85113b	0.25989708
246	0x3e958ac3	0.2920743
247	0xbdbab30a	-0.0911618
248	0xbe6b2ce5	-0.22966345
249	0x3d94d9d5	0.07268111
250	0x3e1c92e5	0.15290411
251	0xbe529fbc	-0.20568746
252	0x3dfff371	0.12497605
253	0x3d6a557b	0.057210427
254	0x3d5bc484	0.05365421
255	0xbe7877a4	-0.2426439

bias f4 [28]
0	0x3e1c9102	0.15289691
1	0xbdadeac8	-0.084920466
2	0x3cd24e3a	0.025672067
3	0x3ddfd829	0.10929901
4	0x3c313be0	0.010817498
5	0x3e3e94f1	0.18611504
6	0xbe177b9c	-0.14793247
7	0xbdb93c3c	-0.09044692
8	0xbe02642c	-0.12733525
9	0x3e2debd3	0.16984491
10	0xbe0582f5	-0.13038237
11	0xbd82b48a	-0.06382091
12	0xbe2034da	-0.15645161
13	0x3deed48a	0.11661632
14	0xbd950ff7	-0.07278436
15	0x3d22dd11	0.039761607
16	0xbe3dcf0c	-0.18536013
17	0x3dcd1604	0.10013965
18	0x3e0fd00b	0.14044206
19	0x3d8c9d23	0.06865909
20	0x3bedefd1	0.0072612544
21	0xbd4a3a2e	-0.04937189
22	0xbd65e6fb	-0.056128483
23	0x3d91cf84	0.071196586
24	0x3e1376cf	0.1440079
25	0x3d733980	0.05938101
26	0x3d769c30	0.060207546
27	0xbd839e58	-0.06426686

weight f4 [28]
0	0x3ecd74ec	0.40128267
1	0x3ed4ae54	0.41539252
2	0x3eeb3db8	0.45945525
3	0x3f31cd4d	0.6945389
4	0x3f4a01db	0.7890908
5	0x3ed83fef	0.42236277
6	0x3eec9a31	0.4621139
7	0x3ea38509	0.31937435
8	0x3eaec840	0.34137154
9	0x3ef0937a	0.46987516
10	0x3f077c1d	0.52923757
11	0x3f3ebccd	0.7450684
12	0x3eef6d9f	0.46763322
13	0x3eda8579	0.42679957
14	0x3edc89d0	0.43073893
15	0x3f7dd1a2	0.99148
16	0x3ebebb4e	0.37252277
17	0x3eceb533	0.4037262
18	0x3efcea75	0.49397627
19	0x3f0f3429	0.55938965
20	0x3f05c061	0.5224667
21	0x3ee2cf6c	0.44298875
22	0x3eddee5b	0.43345913
23	0x3ec733cb	0.38906702
24	0x3ef7ef8c	0.48424947
25	0x3eec7bf1	0.4618831
26	0x3f0c8d83	0.5490343
27	0x3f40c21c	0.7529619

bias f4 [28]
0	0x3e194765	0.14968641
1	0x3f16a27d	0.5884169
2	0xbeb916e2	-0.3615027
3	0x3f6b0ca0	0.9181614
4	0xbeaec609	-0.34135464
5	0x3feb8cfd	1.8402401
6	0x3fd3d731	1.6550046
7	0x3ff7ce02	1.9359744
8	0x3fcfe2ee	1.6241128
9	0x3f871274	1.0552506
10	0x40118343	2.2736366
11	0xbf15cc36	-0.58514726
12	0xbd4eb328	-0.050463825
13	0x400abdfa	2.1678452
14	0x3e925277	0.2857854
15	0xbf835243	-1.0259479
16	0x3e37125c	0.17878097
17	0x3f9915c1	1.1959764
18	0xbdc6691a	-0.09688015
19	0x4001a156	2.0254722
20	0x3f7d42ce	0.9893006
21	0x3fd31d86	1.6493385
22	0x3f9d83ce	1.2305849
23	0x3fa529db	1.2903398
24	0x401b4491	2.42606
25	0x40271ebe	2.6112514
26	0x402f99cf	2.7437627
27	0x3f85288d	1.0403

running_mean f4 [28]
0	0xc06f94a7	-3.743448
1	0x40e23d52	7.0699854
2	0xc275cced	-61.450123
3	0xc1445d0c	-12.2727165
4	0xc2c3ee9d	-97.96604
5	0x4002ec40	2.0456696
6	0x411603bd	9.375913
7	0xc08d2e8c	-4.411932
8	0xc0c164d5	-6.0435586
9	0x40f10063	7.531297
10	0x3f812d96	1.0092037
11	0xc3945a2c	-296.70447
12	0xc18d7e45	-17.686655
13	0xc0b9ccd5	-5.806254
14	0xc18f56f2	-17.917454
15	0xc3fee5dd	-509.7958
16	0x42b0d428	88.41437
17	0xc0092fd8	-2.1435452
18	0xc1a92cfc	-21.146965
19	0x409cb394	4.896921
20	0xc0ce099c	-6.438673
21	0xc05122aa	-3.2677407
22	0xc1fc07cb	-31.503805
23	0xc0dc74ed	-6.889273
24	0x420db5e0	35.427612
25	0xbfd7b1a3	-1.6851085
26	0xbee5fbee	-0.4491877
27	0x41c9772b	25.183187

running_var f4 [28]
0	0x459c26d9	4996.856
1	0x4566a32a	3690.1978
2	0x4574c180	3916.0938
3	0x459b8080	4976.0625
4	0x4656aa64	13738.598
5	0x43ade45c	347.78406
6	0x4580fc5e	4127.546
7	0x45105342	2309.2036
8	0x449d6a5e	1259.324
9	0x45421793	3105.4734
10	0x44505c38	833.4409
11	0x472fad23	44973.137
12	0x45ac188d	5507.069
13	0x43702428	240.14124
14	0x453930cc	2963.0498
15	0x47f159eb	123571.836
16	0x46091c2a	8775.041
17	0x451e26b5	2530.4192
18	0x4582cae6	4185.3623
19	0x453c7285	3015.1575
20	0x458bb395	4470.4478
21	0x43d4fcab	425.97397
22	0x4548348f	3203.285
23	0x451e640d	2534.2532
24	0x45677c41	3703.7659
25	0x43280ad7	168.04234
26	0x453c76c8	3015.4238
27	0x4596f416	4830.5107

weight f4 [28, 28, 3, 3]
0	0xbdcd7677	-0.10032361
1	0xbde2d1c5	-0.110751666
2	0xbe50d1db	-0.20392554
3	0xbdd017a2	-0.101607576
4	0xbae327d0	-0.0017330591
5	0xbd819e05	-0.06328968
6	0xbe8fdd2f	-0.28098437
7	0xbd93a9ca	-0.07210119
8	0xbe7ad08d	-0.24493618
9	0x3e877dc4	0.2646314
10	0x3e5d0dc3	0.21587281
11	0x3e5a9e18	0.2134937
12	0x3f234cd7	0.63789123
13	0x3f01402b	0.5048854
14	0x3ea2814e	0.31739277
15	0x3d79dd06	0.0610018
16	0x3e780886	0.24222001
17	0x3d9d5279	0.07681746
18	0x3efa0e96	0.48839253
19	0x3e449151	0.19196059
20	0x3e23019b	0.15918581
21	0xbe464aad	-0.19364424
22	0x3d944087	0.0723887
23	0x3de95769	0.11393625
24	0x3bb7d809	0.00561047
25	0x3cf5a4f1	0.029985877
26	0x3e1aef5d	0.15130372
27	0x3cdd49d9	0.027012752
28	0x3e5ffb0f	0.21873115
29	0xbe0282ac	-0.1274516
30	0x3d73041d	0.059330095
31	0x3ee3f940	0.445261
32	0x3d722974	0.059121564
33	0xbc3f0b08	-0.011660345
34	0x3e930309	0.28713253
35	0xbd1748c4	-0.03693463
36	0x3e6a4b5d	0.22880311
37	0x3e275637	0.16341482
38	0x3de2dcdf	0.11077284
39	0xbe177975	-0.14792426
40	0xbcb210df	-0.02173656
41	0x3d137c8f	0.03600746
42	0x3e025a1f	0.12729691
43	0xbd15503f	-0.03645348
44	0xbd170f0e	-0.03687959
45	0x3e3f2ab3	0.18668632
46	0x3eab47d2	0.33453232
47	0x3ca5f588	0.02025868
48	0x3e12abcf	0.14323352
49	0xbc10cde1	-0.008838148
50	0xbdcb30be	-0.09921406
51	0xbdb20f45	-0.08694319
52	0xbd0d5786	-0.034507297
53	0x3d8c048b	0.06836804
54	0xbe9773f0	-0.2958064
55	0xbf369709	-0.7132421
56	0xbe279c2e	-0.16368172
57	0xbcc1c611	-0.023654016
58	0xbf399465	-0.7249206
59	0xbeab79c6	-0.33491343
60	0x3d00ee05	0.031476993
61	0xbeeab665	-0.4584228
62	0xbe9a9c4e	-0.30197376
63	0xbe21fa91	-0.1581824
64	0xbdb10b77	-0.08644765
65	0xbe856892	-0.26056343
66	0xbe207f83	-0.15673642
67	0xbd8ee1d6	-0.069766685
68	0x3c9e5514	0.019327678
69	0xbdd21fa0	-0.10259938
70	0xbe1eb2ab	-0.15497844
71	0xbe8a2df4	-0.26988184
72	0x3dacd27f	0.084385864
73	0x3ec9ecee	0.39438576
74	0xbef544e3	-0.4790412
75	0x3f4e9989	0.80703026
76	0x3f9946e5	1.197476
77	0x3f30148b	0.68781346
78	0xbc19a26f	-0.009377106
79	0x3e057c63	0.13035731
80	0xbe2a0ab5	-0.16605647
81	0x3dbde604	0.092723876
82	0x3e730c87	0.23735248
83	0x3d84976d	0.06474195
84	0x3c78b6c7	0.015180296
85	0xbe1c02a4	-0.15235382
86	0xbd9f6e92	-0.077847615
87	0xbd4c593a	-0.04988978
88	0x3da58375	0.08081714
89	0x3c83c56d	0.01608535
90	0x3c69b13f	0.01426345
91	0xbe57e39d	-0.21082921
92	0xbda63e1c	-0.08117315
93	0x3e08ccd8	0.13359392
94	0x3ea6b4f3	0.32559928
95	0x3e80ba27	0.25142023
96	0xbdae314e	-0.08505498
97	0x3e00c321	0.12574436
98	0x3e0f58ac	0.1399867
99	0xbe2b14f2	-0.16707209
100	0xbd0dc640	-0.034612894
101	0xbda6196e	-0.08110319
102	0xbe10868c	-0.14113826
103	0x3d2b1426	0.041767262
104	0x3d8fc617	0.070202045
105	0xbe03a259	-0.128549
106	0xbde0592a	-0.10954507
107	0xbe2b9eb7	-0.16759764
108	0x3eab276e	0.3342852
109	0x3e3984de	0.18117091
110	0x3d0e8b1e	0.03480064
111	0x3d925186	0.071444556
112	0xbd295f2f	-0.04135054
113	0x3da91f60	0.082579374
114	0x3eea96b5	0.45818105
115	0x3e3849ba	0.17996874
116	0xbcab1ae7	-0.020886851
117	0xbd1b9ff3	-0.037994336
118	0x3e0e993f	0.13925646
119	0x3e41a394	0.18910056
120	0xbe54ac34	-0.20768815
121	0x3e8850a9	0.2662404
122	0xbe259b5b	-0.16172545
123	0xbdb6efac	-0.089324325
124	0xbe239c0e	-0.15977499
125	0xbd3c110a	-0.045914687
126	0xbe148e2b	-0.14507358
127	0xbe50aaa0	-0.20377588
128	0xbe9a4aaa	-0.3013509
129	0x3d54c5b5	0.05194636
130	0x3e2842a1	0.16431667
131	0xbdd491ac	-0.10379347
132	0xbe7cf77d	-0.24703784
133	0xbe5d3490	-0.21602082
134	0xbdda863b	-0.10670134
135	0x3e001ea7	0.12511693
136	0x3e7c1645	0.2461787
137	0x3e656381	0.22401239
138	0x3e113df8	0.14183795
139	0x3e051eed	0.13000078
140	0x3e20c77e	0.157011
141	0x3dda6653	0.10664048
142	0x3d62689d	0.05527555
143	0x3d79c13c	0.0609753
144	0x3e864600	0.2622528
145	0x3e109872	0.14120653
146	0x3e099ca2	0.13438657
147	0xbd89ee19	-0.06734867
148	0x3c003e1a	0.007827306
149	0x3de16939	0.11006398
150	0x3df0bc6a	0.11754687
151	0xbb8f016e	-0.004364184
152	0xbd5b8bf1	-0.053600255
153	0x3e2915a1	0.16512157
154	0x3d4379ed	0.0477237
155	0xbe04bced	-0.12962694
156	0xbcbaa8d1	-0.022785576
157	0x3ebcbae1	0.36861327
158	0x3d2f9d5e	0.042874686
159	0xbe188a30	-0.14896464
160	0xbd999e66	-0.07500915
161	0x3b5930c2	0.0033140634
162	0x3db1b897	0.08677786
163	0x3da7d0cd	0.081941225
164	0x3e4c4d8a	0.19951454
165	0x3bd1d358	0.006403368
166	0xbd5a35d4	-0.05327399
167	0x3dd42f41	0.103605755
168	0x3e86b0b8	0.263067
169	0x3e0941a3	0.13403945
170	0xbc7a5665	-0.015279387
171	0xbded1255	-0.11575762
172	0xbc52d175	-0.012867321
173	0xbddadffa	-0.106872514
174	0xbbfe5731	-0.007761859
175	0x3bb19896	0.005419801
176	0xbdef928a	-0.11697872
177	0xbe0b30ac	-0.13592786
178	0x3cc7c70b	0.024386903
179	0xbe1265bb	-0.1429662
180	0x3e1bb917	0.15207325
181	0x3e083974	0.13303167
182	0xbd94927c	-0.07254502
183	0x3d7c4eeb	0.0615987
184	0x3e088b65	0.13334425
185	0xbb700cbf	-0.003662869
186	0xbe315158	-0.17316186
187	0x3d5544a0	0.0520674
188	0xbd8e1dcd	-0.06939278
189	0xbdaa26cc	-0.08308181
190	0xbea08887	-0.31354162
191	0x3e09efdb	0.13470404
192	0x3e1c6397	0.15272366
193	0x3eaaf0e3	0.33386907
194	0xbe6aec98	-0.22941816
195	0xbe3aa657	-0.18227516
196	0x3e6312e6	0.22175178
197	0x3dfbfd87	0.12304216
198	0xbeb47303	-0.35243997
199	0x3e9a0092	0.3007856
200	0x3ea814c4	0.32828343
201	0x3dc3d543	0.09562161
202	0x3e550e2d	0.20806189
203	0x3b753e3d	0.003742113
204	0x3e9a3020	0.3011484
205	0x3ee1ab11	0.44075826
206	0xbd746bd8	-0.05967316
207	0xbea077a0	-0.31341267
208	0xbd955eca	-0.0729347
209	0x3de71a68	0.112843335
210	0x3e07a9a0	0.132483
211	0xbda4f4a1	-0.08054472
212	0xbe1f6e77	-0.15569483
213	0x3e04df2d	0.1297576
214	0x3d9899fa	0.07451244
215	0xbced828e	-0.028992917
216	0x3d14d10a	0.036332168
217	0xbec73756	-0.38909405
218	0x37d050cf	2.4833162e-05
219	0x3de863d8	0.11347169
220	0xbe89fd21	-0.26950935
221	0xbe153cdf	-0.14574002
222	0x3d08e74c	0.033423707
223	0xbd29413d	-0.04132198
224	0xbe0680a0	-0.13135004
225	0xbe9440ae	-0.28955597
226	0xbeeabebc	-0.45848644
227	0xbdf37a92	-0.11888613
228	0x3e4a2c46	0.19743451
229	0x3eb171de	0.34657186
230	0x3deecf8e	0.11660682
231	0x3d9b79c0	0.07591581
232	0xbd7871eb	-0.060655516
233	0xbdd4d918	-0.1039297
234	0x3c5dd4b3	0.013539481
235	0xbe3680de	-0.17822596
236	0x3d996a6b	0.07491001
237	0x3f0138ff	0.50477594
238	0xbd7a5f3f	-0.06112599
239	0xbc8b05a4	-0.016970463
240	0x3ea58a13	0.32331905
241	0xbce57625	-0.028010437
242	0xbdfb2d3c	-0.12264487
243	0x3d4b55f0	0.049642503
244	0x3e3d3c4e	0.18480036
245	0x3ef463bb	0.47732338
246	0x3df4013b	0.11914297
247	0x3cd727ba	0.02626406
248	0x3e4003e6	0.18751487
249	0x3e628464	0.22120816
250	0x3e96bd3d	0.29441252
251	0x3e869e51	0.2629266
252	0x3e321158	0.17389429
253	0x3d432d50	0.047650635
254	0x3bdb89b1	0.0066997637
255	0x3e9ce516	0.3064353

bias f4 [28]
0	0x3d40e0f4	0.047089532
1	0xbd537dc1	-0.0516336
2	0xbcd9c54d	-0.026583338
3	0xbc3e0028	-0.011596717
4	0x3dc80a7b	0.09767624
5	0x3c10e3b5	0.008843352
6	0x3dc52913	0.09626975
7	0x3c5de250	0.013542727
8	0xbce57395	-0.028009215
9	0xbca4b019	-0.020103501
10	0xbc6c58e0	-0.014425486
11	0x3c93ca25	0.018040726
12	0xbd0e2f91	-0.03471333
13	0xbd825ff5	-0.063659586
14	0xbd898c3f	-0.06716203
15	0xbd496903	-0.049172413
16	0x3cf5e0f7	0.030014498
17	0x3cce909a	0.025215436
18	0x3c005e44	0.007834975
19	0x3cab682f	0.020923702
20	0x3cdd75a9	0.027033644
21	0x3d449334	0.047991946
22	0x3d75f915	0.060051996
23	0xbd29572c	-0.0413429
24	0x3d9c3d2b	0.07628854
25	0xbd801662	-0.06254269
26	0xbd96b8b2	-0.073594466
27	0xbd1c5c51	-0.038173977

weight f4 [28]
0	0x3ee48cc0	0.44638634
1	0x3f9030d1	1.1264898
2	0x3f30e1f4	0.6909478
3	0x3ef05fcb	0.46948084
4	0x3f15bc14	0.5849011
5	0x3f44746f	0.76740164
6	0x3f1a4dde	0.60275066
7	0x3f3f6940	0.74769974
8	0x3f015b02	0.5052949
9	0x3f28ef20	0.65989876
10	0x3f3db425	0.74103004
11	0x3f42c81b	0.76086587
12	0x3f2708d8	0.6524787
13	0x3f5ba1a9	0.8579355
14	0x3f65de4e	0.89792335
15	0x3f6a020e	0.91409385
16	0x3f334e86	0.7004169
17	0x3f7c9a83	0.98673266
18	0x3f5646b2	0.8370162
19	0x3f3a0e19	0.7267776
20	0x3f7350b3	0.9504501
21	0x3f6f0031	0.9335967
22	0x3f0f27c7	0.5592007
23	0x3f5a666e	0.85312545
24	0x3edef54d	0.43546525
25	0x3f3cf78a	0.73815215
26	0x3f476f62	0.7790433
27	0x3f7873a5	0.9705146

bias f4 [28]
0	0x3e8a5840	0.27020454
1	0x3f28f876	0.6600412
2	0x3ffc6f05	1.972138
3	0x3d911afd	0.07085226
4	0x3e5bac10	0.21452355
5	0x3fc6888a	1.5510418
6	0x4045a5e6	3.0882506
7	0x3fbead85	1.4896704
8	0x3dcfc113	0.10144248
9	0x3eeb2adb	0.45931134
10	0x3ea58dd8	0.3233478
11	0x3f7388fa	0.95130885
12	0xbd1d565e	-0.038412444
13	0xbc9f66da	-0.019458223
14	0xbd34b5a9	-0.044118557
15	0x3f439f3b	0.7641484
16	0x3ed57b75	0.41695753
17	0xbfb135ad	-1.3844506
18	0x3ea0b843	0.3139058
19	0x3c997c90	0.018736154
20	0xbe233688	-0.15938771
21	0xbf78deb9	-0.9721485
22	0x40529dd4	3.290883
23	0x3e64308a	0.22284141
24	0x3f91e1d6	1.1397045
25	0xbe6c2c64	-0.23063809
26	0xbd922a01	-0.07136918
27	0x3d83b06e	0.06430136

running_mean f4 [28]
0	0x402432b3	2.5655944
1	0xbf0be369	-0.54643875
2	0xc03eb1da	-2.9796052
3	0xc07f652f	-3.9905508
4	0xc08ed4e7	-4.463489
5	0x3f9f53d3	1.2447456
6	0x40c71b4e	6.222083
7	0x405f068a	3.484774
8	0xc16a3997	-14.63906
9	0xc18334cb	-16.400778
10	0xc08132da	-4.0374575
11	0xc04b84a6	-3.1799712
12	0xc0a9d6ef	-5.307487
13	0x4125ed41	10.370423
14	0x40818fa4	4.0487843
15	0x40db45c3	6.852266
16	0x3ec43b5c	0.38326538
17	0x3e0eaece	0.1393387
18	0xbef56584	-0.47929013
19	0x40c31125	6.095843
20	0x40b81440	5.752472
21	0x3f9997a1	1.1999398
22	0xbee543e1	-0.4477835
23	0x40b2fd9d	5.5934587
24	0xc11c440a	-9.766611
25	0xbf2e0ad1	-0.67985255
26	0xc062b57b	-3.5423267
27	0xc0e8c496	-7.2739973

running_var f4 [28]
0	0x40a4d3f4	5.150873
1	0x40b0f497	5.529857
2	0x406bddcc	3.6854124
3	0x40abb0e5	5.3653436
4	0x3fe585ea	1.7931492
5	0x40b58f9a	5.6737795
6	0x3f8995d0	1.0748844
7	0x40e623fb	7.191892
8	0x4092c033	4.585962
9	0x416a1e0d	14.632337
10	0x40f38dbb	7.611051
11	0x41012500	8.071533
12	0x41069d67	8.413428
13	0x414cd85b	12.802821
14	0x4084ec92	4.153878
15	0x40b2a68f	5.582832
16	0x417089c1	15.033631
17	0x408184b8	4.047451
18	0x40129cad	2.2908127
19	0x40bd9237	5.9240985
20	0x4085dd14	4.183237
21	0x3f413e57	0.7548575
22	0x3faf96d3	1.3717903
23	0x40ae7f87	5.4530673
24	0x408faedd	4.4900956
25	0x402c28da	2.6899934
26	0x411104de	9.063688
27	0x41597b60	13.592621

weight f4 [28, 28, 3, 3]
0	0x3cfdec0d	0.030996347
1	0xbe18a06e	-0.14904949
2	0xbd0c7a38	-0.034296244
3	0x3d4059fe	0.046960823
4	0xbd9e1f37	-0.077207975
5	0xbd86af97	-0.0657646
6	0x3e620cf9	0.22075261
7	0x3d7a94fb	0.061177235
8	0xbd4b85d4	-0.049688175
9	0xbb88462a	-0.004158755
10	0x3cd6efbd	0.026237363
11	0x3d7dd3ff	0.061969753
12	0xbda06f13	-0.07833686
13	0xbeabf91c	-0.33588493
14	0xbdea49db	-0.11439868
15	0x3d3367b1	0.04380006
16	0xbde72031	-0.11285437
17	0xbe1a979c	-0.15096897
18	0xbe9980fe	-0.29981226
19	0xbea39782	-0.3195153
20	0x3c2b5272	0.010456668
21	0xbcbeea18	-0.023304984
22	0x3da25eef	0.079282634
23	0xbe282453	-0.16420107
24	0xbcb89b4a	-0.022534985
25	0xbe44ecab	-0.19230907
26	0x3ce8091b	0.028324654
27	0x3e74d741	0.23910238
28	0x3e8ead87	0.27866766
29	0x3da42200	0.080142975
30	0x3ef4a59a	0.47782594
31	0x3ee5cba2	0.44881922
32	0x3dffb99d	0.12486575
33	0x3e1ea499	0.15492477
34	0x3e9c63c4	0.30544865
35	0x3cee2f16	0.029075187
36	0xbe6cfb8b	-0.23142831
37	0xbeb83571	-0.35978273
38	0xbe04c03a	-0.12963954
39	0xbeb8a3cb	-0.36062464
40	0xbf01b0df	-0.5066051
41	0xbe856b85	-0.26058593
42	0xbe2d13ae	-0.16902038
43	0xbecb46e3	-0.3970252
44	0xbe20fc76	-0.15721306
45	0xbe9fb357	-0.31191513
46	0xbe5ed25e	-0.21759936
47	0xbdd17db9	-0.10229058
48	0xbe1be1e3	-0.15222888
49	0x3de8e05b	0.113709174
50	0xbe2388f4	-0.15970212
51	0xbcdd3f40	-0.027007699
52	0xbe971b25	-0.29512897
53	0xbe5fe910	-0.2186625
54	0xbe479a32	-0.19492415
55	0x3e33c7cf	0.1755669
56	0xbdd0722e	-0.10178028
57	0xbe26cf82	-0.16290095
58	0x3e48e4f0	0.19618583
59	0x3d5aef29	0.053450737
60	0xbe28a7b1	-0.16470219
61	0x3d520ce1	0.051281814
62	0xbe0804ad	-0.13283034
63	0x3d070f25	0.032973427
64	0xbde4f5f8	-0.11179727
65	0xbe237023	-0.15960746
66	0xbc9039a2	-0.017605606
67	0xbd3bb554	-0.045827225
68	0xbea6e250	-0.32594538
69	0x3cd64331	0.026155086
70	0xbe6e19c7	-0.23252021
71	0x3d3c01f8	0.045900315
72	0x3d5c51c8	0.05378893
73	0xbdee5bca	-0.11638601
74	0xbd7b3a6c	-0.061335012
75	0xbe075cfe	-0.13219067
76	0xbea37677	-0.3192632
77	0xbdb8a6a6	-0.09016161
78	0xbe67c678	-0.22634304
79	0xbe74767f	-0.23873328
80	0xbdbbefac	-0.09176573
81	0x3e60a3c8	0.21937478
82	0xbe5877db	-0.21139471
83	0x3e7391af	0.23786043
84	0xbe8eaa8e	-0.27864498
85	0xbf4421ed	-0.76614267
86	0xbe18c247	-0.14917861
87	0x3e24e9a9	0.1610476
88	0xbeecb682	-0.46232992
89	0x3eaa9223	0.33314618
90	0x39bddc81	0.00036213177
91	0xbd63d262	-0.05562056
92	0xbe0b2bba	-0.13590899
93	0x3dbf5ce4	0.09343889
94	0x3da871fd	0.082248665
95	0xbd4b8759	-0.049689624
96	0xbdf4e4df	-0.11957716
97	0xbe13b8d7	-0.1442598
98	0xbe4ee290	-0.20203614
99	0x3e1b462d	0.15163489
100	0x3de1db3d	0.110281445
101	0x3de0b011	0.10971082
102	0x3ee0a9b3	0.4387947
103	0x3e85d1fe	0.26136774
104	0x3e4c84b6	0.199725
105	0xbcd5f89b	-0.02611952
106	0x3ca24de7	0.019812537
107	0x3e3203f6	0.17384323
108	0xba1267fa	-0.0005584952
109	0x3d6c1694	0.05763872
110	0x3d8d20eb	0.06891044
111	0x3e5d37f0	0.2160337
112	0x3de8d4d9	0.113687225
113	0xbd2e59b7	-0.042566027
114	0x3e467459	0.1938032
115	0x3d66e33f	0.056369063
116	0x3cd476ec	0.025935613
117	0x3e14fff9	0.14550771
118	0x3eaf2dff	0.3421478
119	0x3e761f06	0.24035272
120	0x3eb0341d	0.3441476
121	0x3f1e2836	0.6178011
122	0x3ec713d2	0.3888231
123	0x3e17db10	0.1482966
124	0x3ee8aaac	0.45442712
125	0x3e36a9e5	0.17838247
126	0x3dc5a5c0	0.09650755
127	0x3d87e280	0.06634998
128	0x3cd5b66c	0.026087962
129	0x3e4251fb	0.18976586
130	0xbd680280	-0.05664301
131	0x3d9c0f75	0.07620136
132	0x3da22c19	0.07918567
133	0x3d15bb29	0.036555443
134	0x3d93ec5a	0.07222815
135	0xbd69ec1e	-0.057109945
136	0xbd908cd0	-0.07058108
137	0x3dae8aec	0.08522591
138	0x3e6a7f52	0.22900131
139	0xbe849726	-0.25896567
140	0x3dd8d1eb	0.10586914
141	0xbe1146aa	-0.14187112
142	0xbda0d3fa	-0.07852931
143	0xbd66b92a	-0.05632893
144	0x3d96f0ac	0.07370123
145	0x3e2dae4f	0.16961025
146	0x3dd36b75	0.1032323
147	0x3ddca33d	0.10773323
148	0x3e754596	0.23952326
149	0x3de66e35	0.11251489
150	0xbd0921bd	-0.03347944
151	0x3e0d0fff	0.13775633
152	0x3dd7c81c	0.10536215
153	0x3e02652f	0.12733911
154	0x3e63f27d	0.2226047
155	0x3e530d9d	0.20610662
156	0x3dd67472	0.10471429
157	0x3e62133a	0.22077647
158	0x3e599cb7	0.21251188
159	0x3dc17e4b	0.094479166
160	0x3df4d11d	0.11953948
161	0x3e089e45	0.13341625
162	0x3da24c71	0.07924736
163	0x3dd5cc5c	0.10439369
164	0x3d548e89	0.051893745
165	0x3dc8169e	0.09769939
166	0xbd3fbd13	-0.046811175
167	0xbdabce9f	-0.08389019
168	0x3d85447c	0.06507203
169	0xbe7a4284	-0.24439436
170	0x3d7917a1	0.06081355
171	0xbd1a9092	-0.03773553
172	0xbe1e902f	-0.15484689
173	0x3ca811ef	0.020516364
174	0xbe6118d2	-0.21982124
175	0xbedabac3	-0.42720613
176	0xbd28f386	-0.041247867
177	0xbda22512	-0.07917227
178	0x3da29afb	0.079397164
179	0x3ddd3d7d	0.108027436
180	0xbe17eafc	-0.14835733
181	0xbe514b1d	-0.2043881
182	0xbd4faef9	-0.050703976
183	0x3e1b1ff2	0.15148905
184	0xbe4e30e5	-0.2013584
185	0xbd40fefe	-0.04711818
186	0xbc01bcc2	-0.0079185385
187	0x3cad21e6	0.021134328
188	0xbde417c1	-0.11137343
189	0x3dc79636	0.09745447
190	0x3e05f31a	0.13081017
191	0x3e0f858f	0.14015792
192	0x3de65d68	0.112482846
193	0x3e3b26d5	0.18276532
194	0x3ddc3b64	0.10753515
195	0x3d7df420	0.062000394
196	0xbd47bbdd	-0.048763145
197	0x3e23f806	0.16012582
198	0x3e7d18c6	0.24716482
199	0x3c0f1768	0.008733608
200	0xba67aea3	-0.00088379736
201	0x3d89a0e3	0.0672014
202	0xbeac426b	-0.33644423
203	0xbdefd448	-0.11710411
204	0x3de584af	0.11206948
205	0x3eb6dd98	0.35715938
206	0xbd34b2f3	-0.04411597
207	0xbbfa505c	-0.007638974
208	0xbeb1acb3	-0.34702072
209	0x3c8e38cb	0.017361065
210	0xbe9dcd60	-0.3082075
211	0x3de63521	0.11240602
212	0xbcc93d4f	-0.024565367
213	0xbd28a7c2	-0.04117561
214	0x3d58a15e	0.052888267
215	0x3d335ca9	0.04378954
216	0xbe38a0a4	-0.1803003
217	0xbde97a0d	-0.114002325
218	0xbe549467	-0.20759736
219	0x3d95680b	0.07295235
220	0x3c81e8a0	0.015857995
221	0xbe0c8ed2	-0.13726357
222	0xbd522a66	-0.051309966
223	0xbda12805	-0.07868961
224	0xbe394929	-0.18094315
225	0x3d29b5a6	0.041433
226	0xbdb08651	-0.08619369
227	0xbd7d3f7e	-0.06182813
228	0x3c97bdcf	0.018523125
229	0xbe6d03f2	-0.23146036
230	0xbe22d1c8	-0.15900338
231	0xbcfa3689	-0.030543583
232	0x3c24d447	0.0100603765
233	0xbcb2ad1e	-0.021811064
234	0xbc971ac1	-0.018445374
235	0xbe3ca264	-0.18421322
236	0x3ca57511	0.020197423
237	0xbc4563bd	-0.012047705
238	0x3c79e82d	0.015253109
239	0xbd3abc33	-0.045589637
240	0x3db62a55	0.08894793
241	0xbe4607f0	-0.19338965
242	0x3e136210	0.14392877
243	0x3cf64f40	0.030067086
244	0xbee0f30a	-0.43935424
245	0xbddd0229	-0.10791428
246	0xbe9bc95d	-0.30427065
247	0xbf4cc683	-0.79990405
248	0xbf201363	-0.6252958
249	0xbd88bbd2	-0.06676449
250	0xbf12d071	-0.57349306
251	0x3cee9952	0.029125843
252	0x3e7fa646	0.24965772
253	0xbdd82d82	-0.10555555
254	0x3c518055	0.012786944
255	0x3eef2663	0.46708974

bias f4 [28]
0	0x3d878fdb	0.06619235
1	0x3c208329	0.009796896
2	0xbdf87d2f	-0.12133252
3	0x3c8020b2	0.01564059
4	0x3c08d40f	0.00835134
5	0x3d95335b	0.07285186
6	0x3bb08151	0.0053865095
7	0x3bde2d0b	0.006780272
8	0xbda23de2	-0.079219595
9	0xbcfafd13	-0.030638253
10	0xbccf0aa8	-0.025273636
11	0xbc87619e	-0.01652604
12	0x3d829dac	0.0637773
13	0x3d63fb22	0.05565942
14	0x3c1cf232	0.009579228
15	0xbd4bdc24	-0.04977049
16	0x3e155702	0.14583972
17	0x3d85c928	0.06532508
18	0x3ceb0a32	0.028691385
19	0xbc6d7229	-0.01449255
20	0xbea01c8b	-0.31271777
21	0x3c1f6cbe	0.009730516
22	0x3ce114ab	0.027475676
23	0x3cd627aa	0.02614196
24	0x3d8e4039	0.06945843
25	0x3cf97949	0.030453341
26	0x3dc243c0	0.094855785
27	0x3dd828b2	0.10554637

weight f4 [28]
0	0x3f2e8fab	0.6818797
1	0x3f454628	0.77060175
2	0x3f6702cd	0.9023865
3	0x3f5d1f6e	0.8637608
4	0x3f7a94b8	0.97883177
5	0x3f7b073f	0.9805793
6	0x3f31fa89	0.6952291
7	0x3f279e46	0.6547588
8	0x3f4cc344	0.7998545
9	0x3f378312	0.7168437
10	0x3f703626	0.93832624
11	0x3f07a692	0.5298854
12	0x3f5cfb75	0.8632119
13	0x3f17c321	0.5928212
14	0x3f4d76dd	0.80259496
15	0x3f0e59b2	0.55605614
16	0x3f8643f9	1.0489494
17	0x3ee3466c	0.44389665
18	0x3f3db649	0.7410627
19	0x3f230365	0.63677055
20	0x3fb79135	1.4341189
21	0x3f61f038	0.8825717
22	0x3eec9200	0.4620514
23	0x3f5fc09e	0.87403286
24	0x3f4abab8	0.7919116
25	0x3f42a79f	0.7603702
26	0x3f5dd864	0.8665831
27	0x3f137e92	0.57615006

bias f4 [28]
0	0x3d74d332	0.059771724
1	0xbfb878a7	-1.441182
2	0xbe900f10	-0.28136492
3	0x3ed516fe	0.41619104
4	0x3dd77948	0.105211794
5	0xbdb82247	-0.08990913
6	0x3e1f7ad1	0.15574194
7	0xbe0b6967	-0.13614427
8	0x3ec7b5dd	0.39005938
9	0xbd955f18	-0.07293528
10	0xbed74bf5	-0.42050138
11	0x4014a883	2.3227851
12	0x3eece018	0.4626472
13	0x3f61cb10	0.88200474
14	0x3f6425c6	0.8912014
15	0x3fda0e3d	1.7035595
16	0xbe74f802	-0.23922732
17	0x3ee249e4	0.44197
18	0xbe534033	-0.20629959
19	0x3ee0c53b	0.43900475
20	0xbf581833	-0.84411925
21	0xbe887b7a	-0.26656705
22	0x400cb24a	2.198382
23	0xbf068cc3	-0.52558535
24	0x3df93f48	0.12170273
25	0xbeb57dbe	-0.35447496
26	0x3ff7ea3a	1.9368355
27	0x401a6e89	2.4129965

running_mean f4 [28]
0	0xc0c93762	-6.2880106
1	0x3f69d9e8	0.91348124
2	0xc07dbdba	-3.964705
3	0x407c56db	3.9428012
4	0xbf84fb36	-1.0389163
5	0xc06f45ad	-3.7386277
6	0x4006a1ef	2.1036336
7	0xc08eea83	-4.466127
8	0x4046a160	3.1035995
9	0xc04bfeec	-3.1874342
10	0x3e48c2a2	0.19605497
11	0x401a76a9	2.4134924
12	0xc03178d1	-2.772999
13	0xbf793eb0	-0.9736128
14	0xc01d3f0a	-2.4569726
15	0xc065d1c0	-3.5909271
16	0xc098440c	-4.7583065
17	0xbefcd64e	-0.49382252
18	0x3e35ba84	0.17746931
19	0xc111bcdc	-9.108608
20	0xc0a5d05c	-5.1816845
21	0x3fc6f1e7	1.5542573
22	0xbe5fe235	-0.21863635
23	0xbfa2c363	-1.2715877
24	0x40bfd66b	5.994924
25	0x40037895	2.0542347
26	0x3ff0f28d	1.8824021
27	0x410e7e80	8.905884

running_var f4 [28]
0	0x412821c9	10.508248
1	0x3fa58333	1.2930664
2	0x41002094	8.007954
3	0x4117a032	9.47661
4	0x415762af	13.461593
5	0x40a2247d	5.066954
6	0x4158bb99	13.5458
7	0x40b79a5f	5.737594
8	0x40a986d7	5.29771
9	0x40bdae64	5.927538
10	0x41211bcc	10.069286
11	0x4054ee8b	3.3270595
12	0x418c7b69	17.560259
13	0x4106baed	8.420636
14	0x410bc726	8.73612
15	0x4090dfe8	4.5273323
16	0x412ebe57	10.92147
17	0x41572548	13.446602
18	0x416c2e30	14.761276
19	0x4111863a	9.09527
20	0x4098d7be	4.7763357
21	0x4180f3ff	16.119139
22	0x40dba45e	6.8638144
23	0x41bdf711	23.745638
24	0x41974718	18.909714
25	0x415f3046	13.9492855
26	0x40ec54c3	7.385347
27	0x40e47dbf	7.14035

weight f4 [28, 28, 3, 3]
0	0xbd8a996d	-0.06767545
1	0xbe45e0f5	-0.19324096
2	0xbe585cff	-0.21129225
3	0xbe3fe2e6	-0.18738899
4	0xbd3b0457	-0.045658436
5	0xbe8797c8	-0.26482987
6	0xbe00619f	-0.1253724
7	0xbe7ba29e	-0.24573752
8	0xbdcd16a5	-0.10014085
9	0xbe92d741	-0.2867985
10	0x3e446dfd	0.19182582
11	0xbe474b38	-0.19462287
12	0x3f8167d5	1.0109812
13	0x3fa09189	1.2544414
14	0x3eab7357	0.33486435
15	0xbd51269c	-0.05106221
16	0x3d6e05ba	0.05811093
17	0x3dbb95c1	0.09159423
18	0x3cbd9e5d	0.023146803
19	0x3f0e49f4	0.55581594
20	0x3eadc764	0.33941185
21	0xbcc5fabc	-0.024167411
22	0x3ecc71f4	0.3993069
23	0xbebd1b45	-0.36934868
24	0xbcc2f505	-0.023798475
25	0xbe55efa4	-0.20892197
26	0xbe964029	-0.29345825
27	0xbc0876a6	-0.008329069
28	0x3d9e10b8	0.077180326
29	0xbd8b4824	-0.06800869
30	0xbdc82a7d	-0.09773729
31	0x3df48510	0.11939442
32	0xbc66a0e6	-0.014076447
33	0x3d1c14ed	0.038105894
34	0xbd723bf0	-0.059139192
35	0xbde9cde1	-0.114162214
36	0xbd98afc6	-0.07455401
37	0xbcec1bac	-0.028821789
38	0xbdfdf2d7	-0.12399834
39	0xbdac2109	-0.084047385
40	0xbc48c30d	-0.012253535
41	0xbbfa2564	-0.007633852
42	0x3d642922	0.05570329
43	0x3c35f069	0.0111046815
44	0x3d83b5bf	0.0643115
45	0x3cd84bd0	0.026403338
46	0xbe1ed537	-0.15511023
47	0xbd8f1084	-0.06985572
48	0xbcea33f2	-0.028589223
49	0x3ebd633a	0.36989766
50	0x3ebd0af8	0.3692243
51	0xbdbdae22	-0.09261729
52	0x3e7c42f8	0.24634922
53	0xbb34db56	-0.0027596555
54	0x3dca596c	0.09880337
55	0x3b38943b	0.0028164524
56	0x3e162acb	0.14664762
57	0x3e0bce38	0.13652885
58	0x3e13dc1c	0.14439434
59	0x3e11664c	0.1419918
60	0xbd53c03e	-0.05169701
61	0xbc24e2a7	-0.010063804
62	0x3e294987	0.16531955
63	0x3dd65810	0.10466015
64	0xbd1738cc	-0.0369194
65	0xbdc7a7c8	-0.097487986
66	0xbdfcb93d	-0.12340019
67	0x3f05905e	0.5217341
68	0xbd6b5f87	-0.05746415
69	0xbd9818c6	-0.074266
70	0xbe86f01a	-0.26355058
71	0xbde5ebd7	-0.112266235
72	0xbd535be4	-0.051601306
73	0x3da7f6df	0.08201384
74	0xbd11a8ac	-0.03556125
75	0x3e05f925	0.13083322
76	0x3e0c26b2	0.13686636
77	0xbbf15015	-0.007364283
78	0xbda35809	-0.07975776
79	0xbc442f67	-0.011974192
80	0xbdec6cc6	-0.115441844
81	0xbe7a821a	-0.24463692
82	0xbdd5feea	-0.104490116
83	0xbe839c99	-0.25705412
84	0xbe78c75c	-0.242948
85	0x3f4909d4	0.7853062
86	0x3de48192	0.11157526
87	0x3e0fa61a	0.14028206
88	0x3e03ff38	0.12890327
89	0xbead2ff5	-0.3382565
90	0xbd154698	-0.036444277
91	0xbe01095c	-0.12601227
92	0xbe4f8e34	-0.2026909
93	0x3f17c034	0.59277654
94	0x3f7a0e18	0.97677755
95	0x3e4a625d	0.19764085
96	0xbe7e2dcf	-0.24822162
97	0x3e73bdd4	0.23802882
98	0x3b4227c1	0.0029625746
99	0xbde3d53b	-0.11124655
100	0xbde76dc5	-0.11300234
101	0xbdb03449	-0.086037226
102	0xbd98169b	-0.07426187
103	0x3ef91f1a	0.4865654
104	0x3eab5bfc	0.33468616
105	0xbda9e91c	-0.08296415
106	0x3dab0b9f	0.08351826
107	0xbca186b4	-0.019717552
108	0x3c109411	0.008824364
109	0x3cc522db	0.024064472
110	0xbe0663c9	-0.13124003
111	0x3d9d78ab	0.07689031
112	0x3e8e99f4	0.27851832
113	0x3df11d00	0.117731094
114	0xbdb7dee1	-0.08978058
115	0x3de01d42	0.109430805
116	0x3cb89aae	0.022534695
117	0x3cec1535	0.028818706
118	0x3e4578b4	0.19284326
119	0x3cdb5d65	0.026777932
120	0xbd5c59d6	-0.05379661
121	0xbe06c295	-0.13160165
122	0xbe50f3f9	-0.20405568
123	0x3da46a6a	0.08028109
124	0x3e43c9ac	0.191199
125	0x3ca193f3	0.019723868
126	0xbcbc3dca	-0.022978682
127	0x3bed3b90	0.0072397664
128	0xbbfe7207	-0.007765058
129	0x3e664fb8	0.22491348
130	0x3e801867	0.25018618
131	0xbd22cab0	-0.03974408
132	0x3ecd62db	0.40114483
133	0x3ef649ea	0.48103267
134	0x3b41287a	0.0029473589
135	0x3d2e99e8	0.042627245
136	0xbcb9dd7d	-0.022688622
137	0x3e2cbc9d	0.16868825
138	0x3cc87006	0.02446748
139	0x3f67e627	0.9058556
140	0xbe6b9497	-0.23005901
141	0xbe11732c	-0.14204091
142	0x3b61c118	0.0034447368
143	0x3e99a612	0.30009514
144	0xbdc616a9	-0.09672291
145	0x3db304f9	0.08741183
146	0x3da77e9c	0.08178446
147	0x3e92b0a3	0.28650388
148	0x3e7b473d	0.24538894
149	0x3dd5e00f	0.104431264
150	0xbdf39b48	-0.11894852
151	0x3ca6eb7a	0.020375956
152	0xbc8ec904	-0.017429836
153	0x3d652b85	0.055949707
154	0x3c7ed602	0.015553953
155	0x3e672956	0.22574362
156	0xbdd5380e	-0.10411082
157	0xbd9212fe	-0.07132529
158	0x3db16b7f	0.086630814
159	0x3e198f8b	0.14996164
160	0xbe1fec2f	-0.1561744
161	0x3da28713	0.079359196
162	0x3cf59201	0.029976847
163	0x3ee52db6	0.44761437
164	0xbc9e8302	-0.019349579
165	0x3d82ba7a	0.06383224
166	0x3f2b288c	0.66858745
167	0x3e5088e7	0.20364724
168	0x3d9364bd	0.07196949
169	0x3e6aa389	0.22913946
170	0x3e1dafac	0.15399045
171	0xbe1a94b7	-0.15095793
172	0xbd9b396c	-0.07579312
173	0x3dea6d29	0.11446602
174	0xbf0b7d8f	-0.5448846
175	0xbe962660	-0.29326153
176	0xbed4e003	-0.41577157
177	0x3e7adbf2	0.24497965
178	0x3d54feea	0.052000917
179	0xbd7e54ac	-0.06209247
180	0xbe6d936d	-0.2320077
181	0x3ec867d2	0.3914171
182	0x3d773a24	0.06035818
183	0xbe97c632	-0.296434
184	0xbed0659e	-0.40702528
185	0x3d321fba	0.043487288
186	0xbe037ae2	-0.12839845
187	0x3cd4f73e	0.0259968
188	0xbd4a5eb9	-0.04940674
189	0xbdcbc30a	-0.0994931
190	0x3cdfc53d	0.02731573
191	0x3cfac86d	0.030613149
192	0x3d0a64e5	0.033787627
193	0x3ead8d4e	0.3389687
194	0x3d8a5d73	0.06756105
195	0x3dbace6f	0.09121405
196	0x3d8a6939	0.06758351
197	0x3cfd5dc1	0.030928494
198	0xbd20f7bc	-0.039298758
199	0xbe170df7	-0.14751421
200	0xbd19ab32	-0.03751678
201	0x3d269e43	0.040678274
202	0xbf33bc60	-0.7020931
203	0xbd1b53f4	-0.03792186
204	0xbe279f4b	-0.16369359
205	0xbe311560	-0.1729331
206	0x3d346aa8	0.044047028
207	0xbd20ce25	-0.039259095
208	0x3ddd194f	0.10795843
209	0x3de76e95	0.11300389
210	0x3e5e25ac	0.21694058
211	0x3f300dfd	0.68771344
212	0x3e0e30a9	0.1388575
213	0xbd0681af	-0.03283852
214	0x3e0765b9	0.13222398
215	0x3d633c6e	0.055477552
216	0x3be52f30	0.0069941506
217	0x3e1b2a62	0.15152887
218	0x3e0e1487	0.13875018
219	0xbc9f2faa	-0.019431908
220	0xbcb57a6b	-0.0221531
221	0x3e8f9c2e	0.28048843
222	0xbe74575d	-0.23861451
223	0x3db1ca34	0.08681145
224	0x3e27275e	0.16323611
225	0xbd99a483	-0.07502081
226	0x3daa6cce	0.08321534
227	0xbd861ecf	-0.06548845
228	0x3e1597ac	0.1460864
229	0x3e87c6cb	0.26518854
230	0x3dfc9d7e	0.12334727
231	0x3d2bc485	0.041935463
232	0x3d80c33e	0.062872395
233	0xbb511022	-0.0031900485
234	0x3e3d352d	0.18477316
235	0xbd37dada	-0.044886447
236	0x3d61d476	0.05513426
237	0xbd97b653	-0.074078225
238	0x3c3bd4c9	0.011464306
239	0x3e173b33	0.14768676
240	0xbe28c6c2	-0.1648207
241	0x3c19323c	0.009350356
242	0x3da8ed48	0.08248383
243	0x3d671f9d	0.056426633
244	0xbc511916	-0.012762329
245	0x3b403302	0.0029327278
246	0x3e0884c4	0.13331896
247	0xbd9a2fdc	-0.0752866
248	0xbd36e221	-0.044649247
249	0x3d1a1e49	0.03762654
250	0xbe34971b	-0.17635767
251	0xbe651c24	-0.22374016
252	0x3b5ac855	0.0033383567
253	0xbd354717	-0.04425725
254	0xbc039192	-0.008030312
255	0xbd68e88f	-0.05686241

bias f4 [28]
0	0x3d0cf73c	0.03441547
1	0xbc8857a2	-0.01664335
2	0xbd78bcdf	-0.060726997
3	0xbd8d05e6	-0.06885891
4	0x3da1237d	0.07868097
5	0x3cb21a36	0.021741014
6	0x3d506abf	0.05088305
7	0x3ccbf9b1	0.024899336
8	0x3cdd3f84	0.027007826
9	0x3c46cab9	0.012133294
10	0xbc25ae82	-0.010112407
11	0xbdad2e3c	-0.08456084
12	0x3d215b0b	0.039393466
13	0x3d13a215	0.036043245
14	0x3d1c74f9	0.03819749
15	0xbcb9f425	-0.022699425
16	0x3c4d1e9c	0.012519505
17	0xbd708b1b	-0.05872641
18	0xbc6e4e22	-0.0145449955
19	0xbc3816e1	-0.0112359235
20	0x3bd174ac	0.006392082
21	0xbd8ae7fd	-0.067825295
22	0x3d80b652	0.06284775
23	0x3da7ae49	0.08187539
24	0x3d59343b	0.053028326
25	0x3dcd78dc	0.10032818
26	0xbd7ed396	-0.062213503
27	0x3d0724dd	0.03299414

weight f4 [28]
0	0x3f417f4e	0.75584877
1	0x3fb15a4a	1.3855679
2	0x3f0d5cc4	0.55219674
3	0x3f8090c1	1.0044175
4	0x3f82c94d	1.0217682
5	0x3fa92f7c	1.3217616
6	0x3f2a118c	0.66433024
7	0x3f77f566	0.96858823
8	0x3f646e26	0.89230573
9	0x3f590908	0.84779406
10	0x3f53a8bf	0.8267936
11	0x3f5f36bf	0.8719291
12	0x3f87649c	1.0577579
13	0x3f4e4157	0.8056845
14	0x3f3489e2	0.7052289
15	0x3f312369	0.69194657
16	0x3f6c5c13	0.92327994
17	0x3f62ee6e	0.88645065
18	0x3f6c7133	0.9236023
19	0x3f123cb1	0.5712386
20	0x3f44e244	0.76907754
21	0x3f558fdd	0.8342264
22	0x3fa87f9d	1.3163944
23	0x3f5ae46e	0.85504806
24	0x3f1d5dac	0.61471057
25	0x3f793d72	0.97359383
26	0x3f56935c	0.838186
27	0x3f068bf1	0.52557284

bias f4 [28]
0	0xbe6a5126	-0.22882518
1	0xbe3ae4e2	-0.18251374
2	0x3e969984	0.29413998
3	0xbe765a7e	-0.24057958
4	0xbe4781db	-0.1948313
5	0xbecc31db	-0.39881787
6	0x40234c44	2.55153
7	0xbdfe1a1e	-0.12407325
8	0xbef5246c	-0.4787935
9	0xbf115571	-0.56771
10	0x3f094c96	0.53632486
11	0x3e044f2b	0.12920825
12	0xbeb35ae1	-0.35030273
13	0x3f08e8ff	0.53480524
14	0x404a19a6	3.1578155
15	0x3eb78d3b	0.35849938
16	0xbef169a5	-0.47150913
17	0x3e345a84	0.17612654
18	0xbe4c12c3	-0.19929032
19	0x3d179eb8	0.0370166
20	0x3dc797d4	0.09745756
21	0x3d6f6f70	0.058455884
22	0xbf7b0f5e	-0.98070323
23	0xbeaba987	-0.33527777
24	0x3f6fa9bb	0.93618363
25	0xbe3cfdf4	-0.1845625
26	0xbf2a4625	-0.6651328
27	0x3fdabac2	1.7088244

running_mean f4 [28]
0	0x4002a1a3	2.0411155
1	0x3f0a60db	0.5405404
2	0xc13b89e5	-11.721166
3	0x40671315	3.6105397
4	0xc02d35fb	-2.7064197
5	0xbff1cf79	-1.8891441
6	0x407b612d	3.9278061
7	0xc083d8ba	-4.120206
8	0xc08b1695	-4.3465066
9	0xc0337002	-2.8037114
10	0x40428793	3.0395248
11	0x3fd26316	1.6436489
12	0xc0979e1f	-4.738052
13	0x40b12508	5.5357704
14	0x40df39d5	6.9758096
15	0xc13027eb	-11.009746
16	0xc02909af	-2.641216
17	0x3f94e69d	1.1632878
18	0xc045cd48	-3.0906544
19	0xc1073121	-8.449494
20	0xbfbca69f	-1.4738349
21	0x4025e996	2.592382
22	0xc0658e50	-3.586811
23	0x40ee27c2	7.4423532
24	0x410716dc	8.443081
25	0xc00003d1	-2.000233
26	0x407854e7	3.880182
27	0x4000fc04	2.0153818

running_var f4 [28]
0	0x40e17e12	7.0466394
1	0x40f53719	7.662976
2	0x41300027	11.000037
3	0x402ac07a	2.6679978
4	0x419e9e8e	19.82742
5	0x41002dd6	8.01119
6	0x40cdd556	6.432292
7	0x417ec6ce	15.923536
8	0x414f7352	12.965654
9	0x405f7a65	3.4918454
10	0x4194d240	18.602661
11	0x405f3bde	3.488029
12	0x41464907	12.392829
13	0x40e4363f	7.131622
14	0x40c47207	6.1389194
15	0x41542a37	13.260306
16	0x41a1c5da	20.221607
17	0x419594b8	18.697617
18	0x40fb4614	7.8523045
19	0x406d1691	3.7045023
20	0x4085626a	4.1682634
21	0x40e37fa9	7.1093335
22	0x408380ac	4.109457
23	0x4134cf21	11.300569
24	0x4105be86	8.3590145
25	0x41ccfa0c	25.622093
26	0x405282b6	3.289228
27	0x40ca10be	6.3145437

weight f4 [28, 28, 3, 3]
0	0xbcfb5a91	-0.030682834
1	0x3cc2dc55	0.023786703
2	0xbdb90b45	-0.090353526
3	0xbdb2bbc3	-0.08727219
4	0x3daa1c8a	0.08306225
5	0x3e0d5d55	0.13805135
6	0xbad9ab0b	-0.0016606761
7	0x3c3e0721	0.011598379
8	0xbd1a1e97	-0.03762683
9	0xbdfc3b2b	-0.12315973
10	0x3ea1beb8	0.3159082
11	0xbc0cff53	-0.008605796
12	0x3d8a8baf	0.06764924
13	0x3ed1ae80	0.40953445
14	0x3de31f5c	0.11089966
15	0xbd6cf4f9	-0.05785081
16	0xbdb78069	-0.08960039
17	0xbd6cf22c	-0.05784814
18	0xbde3c2ee	-0.11121164
19	0xbdeae248	-0.11468941
20	0xbcaf7f81	-0.021423103
21	0xbd685201	-0.05671883
22	0xbed93dba	-0.42429906
23	0xbe75ab26	-0.23991069
24	0x3d826623	0.06367137
25	0xbe810e1f	-0.25206086
26	0x3da8baeb	0.08238777
27	0xbde8376f	-0.11338698
28	0x3e24ddfa	0.16100302
29	0xbe697cdc	-0.22801536
30	0xbd75f944	-0.06005217
31	0x3eeb1769	0.45916298
32	0x3dd83dd6	0.10558669
33	0xbd27c57f	-0.04095983
34	0xbbf8110b	-0.007570391
35	0xbd871b38	-0.065969884
36	0x3da48d02	0.080347076
37	0x3e93ac32	0.28842312
38	0x3d282879	0.041054223
39	0x3e4f8089	0.20263876
40	0x3f49657f	0.78670496
41	0x3ee701d0	0.4511857
42	0x3e382fc7	0.17986976
43	0x3e5f7baa	0.21824518
44	0x3dd9dab5	0.10637418
45	0xbf09ffc2	-0.5390588
46	0xbe9a7a14	-0.30171263
47	0xbe054152	-0.13013199
48	0xbf04c28c	-0.51859355
49	0xbe9ccc4f	-0.30624625
50	0xbe464673	-0.19362812
51	0xbed2b75a	-0.4115551
52	0xbe9f908e	-0.31164974
53	0xbe827b79	-0.25484827
54	0xbe1ec831	-0.15506054
55	0x3dd21982	0.102587715
56	0x3da5d5af	0.080973975
57	0xbd6b18db	-0.05739675
58	0xbe9ebbdb	-0.31002697
59	0x3e8aca50	0.27107477
60	0x3dc51072	0.09622277
61	0xbd6ed3bd	-0.058307398
62	0xbe0a6443	-0.1351481
63	0xbcfbb594	-0.030726232
64	0xbbeea09b	-0.0072823293
65	0xbd39c338	-0.04535219
66	0xbd87953a	-0.066202596
67	0xbe4f8a7a	-0.20267668
68	0xbe2c4310	-0.16822457
69	0xbda7cc28	-0.081932366
70	0xbd918515	-0.071054615
71	0x3c6a8922	0.014314922
72	0x3e3ac3c2	0.18238738
73	0x3e862e29	0.26207092
74	0x3e712d3c	0.23552412
75	0x3ec1ba91	0.3783765
76	0x3ebdb2b6	0.37050408
77	0x3e567fdd	0.20947213
78	0x3ed86b3c	0.42269313
79	0x3eb756f6	0.35808533
80	0x3e61c1d4	0.22046596
81	0xbdbd4287	-0.09241205
82	0xbd8405d4	-0.06446424
83	0xbe299e17	-0.16564213
84	0xbdd000c2	-0.101563945
85	0x3e02298f	0.12711166
86	0xbd286cec	-0.0411195
87	0x3da9cf6f	0.08291518
88	0x3b5be0c4	0.0033550719
89	0xbe25aa51	-0.16178252
90	0x3b84fd4b	0.004058515
91	0x3e429416	0.19001803
92	0x3c2f89ce	0.010714008
93	0xbe0fd5dd	-0.14046426
94	0x3e71838c	0.23585337
95	0xbdf4d246	-0.11954169
96	0x3c002c58	0.007823072
97	0xbdcf2d02	-0.101160064
98	0xbd86dae2	-0.06584717
99	0xbc8b0b0f	-0.016973047
100	0xbd9e18c0	-0.077195644
101	0xbc145d95	-0.009055515
102	0x3ddacb67	0.10683327
103	0x3e5c791c	0.21530575
104	0xbbe8a5b7	-0.007099833
105	0x3dd843fd	0.10559843
106	0x3d1b2a00	0.03788185
107	0xbccebcf1	-0.025236579
108	0xbdac3a2f	-0.08409535
109	0xbdf401e6	-0.119144246
110	0xbdfdf0f5	-0.123994745
111	0xbe737ddb	-0.23778479
112	0xbea0c8d8	-0.31403232
113	0xbdc5212f	-0.0962547
114	0x3ca41d99	0.020033645
115	0xbd1a85c5	-0.03772523
116	0x3ba29cec	0.004962554
117	0xbd865a99	-0.06560249
118	0xbcfbdc61	-0.030744733
119	0x3d015129	0.03157154
120	0x3e4b2b72	0.19840792
121	0xbd0c7591	-0.034291808
122	0xbe965a21	-0.29365638
123	0x3d6b7df5	0.05749317
124	0xbe041d13	-0.12901716
125	0x3c1fb280	0.009747148
126	0xbdb98189	-0.0905791
127	0xbcc720b6	-0.02430759
128	0xbdadd1ff	-0.08487319
129	0x3d0eeba9	0.03489271
130	0x3ed33989	0.41254833
131	0xbd2cd185	-0.042192
132	0xbc0385bb	-0.008027489
133	0x3db8d822	0.09025599
134	0xbe0c6fa6	-0.13714465
135	0xbd0c2fa5	-0.034225125
136	0xbe685ff0	-0.22692847
137	0x3b98782b	0.004652997
138	0xbe21c3e6	-0.15797386
139	0xbe93a6aa	-0.28838092
140	0xbe1223a7	-0.14271413
141	0x3b00f043	0.0019674457
142	0x3c0688c3	0.0082113175
143	0xbcb95133	-0.022621727
144	0xbcd05bb6	-0.025434356
145	0x3e7fc769	0.24978413
146	0x3db7e4f6	0.08979218
147	0x3dd3ac22	0.10335566
148	0x3f39db5e	0.7260035
149	0x3ea3a071	0.31958345
150	0xbd9a0b59	-0.07521696
151	0x3e8dcdec	0.27696168
152	0x3d455a10	0.048181593
153	0x3dae7bf4	0.08519736
154	0xbe1f0ab8	-0.15531433
155	0x3da22f4f	0.0791918
156	0xbe014a35	-0.12625964
157	0xbe001a7a	-0.125101
158	0xbe730057	-0.23730598
159	0x3da95cb6	0.08269636
160	0xbd87cde0	-0.066310644
161	0x3df14a68	0.1178177
162	0x3dfda323	0.123846315
163	0x3d8076c5	0.062726535
164	0x3e1575c2	0.14595702
165	0x3e83958c	0.25700033
166	0x3f0b7ecd	0.5449036
167	0xbe1fd59a	-0.15608826
168	0x3e75bfbd	0.23998924
169	0xbe21f8ae	-0.1581752
170	0x3e1dbcff	0.15404128
171	0xbbfd6421	-0.0077328836
172	0x3e5a9e5c	0.21349472
173	0x3ddbd29d	0.10733531
174	0xbdd52ddf	-0.1040914
175	0xbf1f960e	-0.6233834
176	0xbdd5a5c1	-0.10432006
177	0x3d89e981	0.067339905
178	0xbe9a6691	-0.30156377
179	0x3e06815a	0.13135281
180	0x3e2720a6	0.16321048
181	0xbe987f5f	-0.29784676
182	0x3db8ed4f	0.09029638
183	0x3e8b6c32	0.27230984
184	0x3edd91e9	0.43275383
185	0xbe957116	-0.2918784
186	0xbcef065d	-0.029177839
187	0xbcec639a	-0.028856087
188	0xbcc1e88c	-0.023670457
189	0x3e0c3261	0.13691093
190	0x3daf81b1	0.085696585
191	0x3d0020bd	0.03128122
192	0x3e5216d7	0.20516525
193	0x3eb4e9b6	0.35334557
194	0x3eaa4cce	0.33261722
195	0x3d2515da	0.040304042
196	0x3e1f0bcf	0.15531848
197	0x3e20051b	0.15626948
198	0xbee48ffa	-0.44641095
199	0x3db46770	0.08808792
200	0xbdb889ea	-0.0901068
201	0xbe12178e	-0.14266798
202	0x3ecb70fb	0.39734635
203	0x3eac9a8a	0.33711654
204	0xbea2a8bb	-0.31769356
205	0xbe470d07	-0.19438563
206	0xbe031107	-0.12799464
207	0x3c60601d	0.01369479
208	0x3db6eb9c	0.08931658
209	0x3d5c6d07	0.053814914
210	0x3df150fe	0.11783026
211	0x3e8d5215	0.27601686
212	0xbe0b0153	-0.13574724
213	0xbad40b79	-0.0016177736
214	0xbd2600d6	-0.04052814
215	0xbce86178	-0.02836679
216	0x3cfb9224	0.030709334
217	0xbce9de08	-0.028548256
218	0x3d9017c6	0.070357844
219	0x3cb7dd1b	0.022444298
220	0x3d6b461a	0.0574399
221	0x3dc909b1	0.098163016
222	0xbaf8c77d	-0.001898035
223	0x3e54ce2e	0.20781776
224	0x3d887b75	0.066641726
225	0xbcbeaecf	-0.023276715
226	0xbd09b3d4	-0.033618763
227	0x3dcd81dc	0.10034534
228	0x3cbde42a	0.023180086
229	0x3d7aea70	0.061258733
230	0x3d2aeec1	0.0417316
231	0x3cd9907d	0.026558155
232	0xbb400caa	-0.0029304423
233	0x3d4aa451	0.04947311
234	0x3cd26086	0.025680792
235	0x3f110d6a	0.56661093
236	0x3e305cbc	0.17222875
237	0x3dbfe994	0.09370723
238	0x3f86957a	1.0514367
239	0x3efff396	0.4999053
240	0x3de07b60	0.10961032
241	0x3e37ea30	0.17960429
242	0xbd1f41b4	-0.03888102
243	0xbe7944d3	-0.2434266
244	0x3d99827a	0.074955896
245	0xbd11edc5	-0.035627145
246	0x3e5434d3	0.20723276
247	0x3f87420d	1.0567032
248	0xbda2aa47	-0.07942634
249	0x3ce847f7	0.028354628
250	0x3d96e2fe	0.07367514
251	0x3c2d6291	0.010582582
252	0xbb10d70c	-0.0022100834
253	0x3e204df7	0.15654741
254	0xbd51a20f	-0.05117994
255	0x3de710f4	0.112825304

bias f4 [28]
0	0xbd73a886	-0.05948689
1	0xbbc8dc92	-0.0061298097
2	0x3d91a8ff	0.071123116
3	0x3d87af87	0.06625276
4	0x3c8546d5	0.016269127
5	0xbd8d4276	-0.06897442
6	0xbb4f8068	-0.003166223
7	0x3cc999d4	0.024609484
8	0x3ca4ed9f	0.020132838
9	0xbd3609c2	-0.0444429
10	0xbcded0db	-0.0271992
11	0xbd6acdff	-0.05732536
12	0xbc9d9661	-0.019236745
13	0xbd227026	-0.039657734
14	0xbdc56fd0	-0.09640467
15	0xbd1c2218	-0.03811845
16	0x3c454b7e	0.0120419245
17	0xbc97b202	-0.018517498
18	0xbc813b6e	-0.015775409
19	0x3c4661ff	0.012108325
20	0xbbad9325	-0.005297082
21	0xbcb9ae64	-0.022666164
22	0xbd443914	-0.047905996
23	0xbcaffeec	-0.02148386
24	0xbd0a8ac7	-0.033823755
25	0x3daf7ff0	0.08569324
26	0xbcafffd2	-0.02148429
27	0x3d811c79	0.06304259

weight f4 [28]
0	0x3f6fd851	0.9368945
1	0x3f89bf18	1.0761442
2	0x3f7ee67e	0.99570453
3	0x3fa73ee6	1.306607
4	0x3f13673b	0.5757939
5	0x3f7b3e89	0.98142296
6	0x3f829bac	1.0203757
7	0x3f0f8dd5	0.56075794
8	0x3f8a41b0	1.0801296
9	0x3f89a814	1.0754418
10	0x3f0e6745	0.55626327
11	0x3f88d53d	1.0690075
12	0x3f057f7d	0.52147657
13	0x3f72328a	0.94608366
14	0x3f72f4ee	0.94904983
15	0x3f8113d7	1.008418
16	0x3f948e3a	1.1605904
17	0x3f777aa0	0.96671486
18	0x3fd97300	1.698822
19	0x3f6580b0	0.89649487
20	0x3f30a8a0	0.690073
21	0x3f68a2f4	0.90873647
22	0x3f64f7cc	0.8944061
23	0x3f38c629	0.7217737
24	0x3f8a526f	1.0806407
25	0x3f2ee26b	0.68314236
26	0x3f96bb6d	1.1775948
27	0x3f1c17cd	0.6097382

bias f4 [28]
0	0xbd0b6ac0	-0.03403735
1	0xbe826e22	-0.2547465
2	0xbdc92107	-0.098207526
3	0xbf3cd8f9	-0.73768574
4	0x3ee902e2	0.45510012
5	0x3ff4394f	1.9079989
6	0xbf3be33d	-0.73393613
7	0x4003ff71	2.062466
8	0xbf464d55	-0.7746175
9	0x3fc7fd54	1.5624185
10	0x3e8d5b9a	0.2760895
11	0xbf49427a	-0.7861706
12	0x3f3ebac0	0.7450371
13	0x3d5a7ae2	0.053339846
14	0xbf192e0a	-0.59835875
15	0x3e1998dd	0.14999719
16	0xbedbef0c	-0.42955816
17	0xbe9800d2	-0.29688126
18	0xbdedd043	-0.116119884
19	0xbad9306d	-0.0016570218
20	0x3eff79f5	0.49897733
21	0x3fb1f3a7	1.3902482
22	0x3dd3f18c	0.10348806
23	0x3e252bb9	0.1612996
24	0xbe533cc5	-0.2062865
25	0x3ead00b3	0.33789596
26	0xbdda9f15	-0.10674874
27	0x3e4db6ec	0.2008931

running_mean f4 [28]
0	0x4023e4f7	2.56085
1	0x3e1de912	0.1542094
2	0xc07323f5	-3.7990696
3	0xbe17168c	-0.14754695
4	0x3f00e805	0.50354034
5	0x4093c275	4.6174874
6	0x3f1f93f8	0.6233516
7	0xbfc7e72d	-1.5617424
8	0xc064a2e1	-3.5724413
9	0x3f0ad645	0.542332
10	0x3fc74a6e	1.5569589
11	0x40a4448f	5.133369
12	0xc0fd8dff	-7.9235835
13	0xbf77fcc6	-0.96870077
14	0xc0210b69	-2.5163214
15	0x3fd66d66	1.6752136
16	0xbdfc30d2	-0.12313999
17	0x401ddf6d	2.4667618
18	0x40338a06	2.8052993
19	0xc008c6e8	-2.1371403
20	0xbfada3fb	-1.3565668
21	0x414ea415	12.915059
22	0x403e6338	2.9748058
23	0x402915f3	2.6419647
24	0xbece27b6	-0.40264672
25	0xc01e4dfd	-2.47351
26	0x3fe72061	1.8056756
27	0xc05c4733	-3.4418457
